models/best_model.pt (torch, 683947 bytes, 39 tensors)

initial_conv.weight f4 [32, 2, 3, 3]
0	0xbed86169	-0.42261818
1	0xbdf93423	-0.121681474
2	0x3df9286b	0.12165912
3	0xbca6be1e	-0.020354327
4	0xbdbd9e80	-0.09258747
5	0x3e31d29e	0.173655
6	0xbf535efa	-0.825668
7	0xbf5fea62	-0.87467015
8	0xbf8c8e22	-1.0980875
9	0x3f7c7015	0.98608524
10	0x3f89b155	1.0757242
11	0x3f49ac49	0.7877851
12	0x3f459b68	0.77190256
13	0x3f641db9	0.89107853
14	0x3ea8cabc	0.32967174
15	0xbfaaaf9b	-1.333484
16	0xbf9ba69b	-1.2160219
17	0xbf97a9e0	-1.1848717
18	0xbde7aec4	-0.11312631
19	0x3e95f5e2	0.29289156
20	0xbe58c80d	-0.21170063
21	0x3e32e068	0.17468417
22	0x3f1b8854	0.60754895
23	0xbe95a30d	-0.2922596
24	0xbe2f91a0	-0.17145395
25	0xbe2a66ee	-0.16640827
26	0xbd5bfb3a	-0.053706385
27	0xbf2530cf	-0.645276
28	0x403edf22	2.982369
29	0x3fd16a75	1.6360613
30	0x3e54a7b4	0.20767099
31	0x40986ddc	4.7634106
32	0x404f777d	3.241668
33	0x40260399	2.5939696
34	0x40dece08	6.9626503
35	0x40a3aad9	5.1146054
36	0x3d871b77	0.065970354
37	0xbd8aef8b	-0.067839704
38	0x3b913676	0.004431541
39	0xbea249a3	-0.31696805
40	0xbe90e89b	-0.28302464
41	0xbd05a0ad	-0.032623935
42	0x3e9ad7b7	0.30242702
43	0x3ef3e1c7	0.47633192
44	0xbc344997	-0.011003873
45	0x40436ab2	3.0533872
46	0x40da3653	6.8191314
47	0x4019c6d6	2.402761
48	0x4043e14c	3.060626
49	0x40df214a	6.9728136
50	0x3fea829d	1.832111
51	0x4054b550	3.3235664
52	0x40efe4ed	7.496695
53	0x402a3bbe	2.6598964
54	0xbee14a9a	-0.4400223
55	0xbea1453b	-0.3149813
56	0xbde7e4b0	-0.113229156
57	0x3c387ac4	0.011259738
58	0xbecc5858	-0.3991115
59	0xbdf36066	-0.11883621
60	0xbbc4b45a	-0.006002945
61	0xbec20f2c	-0.379022
62	0xbe2b83d3	-0.16749506
63	0x3d4982e5	0.049197096
64	0x3e109095	0.14117654
65	0xbe57b48d	-0.21064968
66	0xbf0301e0	-0.51174736
67	0xbe90f815	-0.28314272
68	0xbf04b6b8	-0.51841307
69	0xbe6f3d74	-0.23363286
70	0xbc9a521d	-0.018837983
71	0xbebf221d	-0.37330714
72	0x3d1a3736	0.03765031
73	0xbe3c0133	-0.18359832
74	0x3e071c29	0.13194336
75	0xbe458ccc	-0.19291991
76	0xbeb762da	-0.35817605
77	0x3f1ef636	0.6209444
78	0x3e08016c	0.13281792
79	0xbe86d171	-0.26331666
80	0x3e211e8e	0.15734312
81	0xbe75eeb6	-0.24016842
82	0x400b6975	2.1783116
83	0x3fa0e366	1.2569396
84	0x407f0ef1	3.985287
85	0x40ca515f	6.322433
86	0x40bb7729	5.858296
87	0x40445eea	3.068293
88	0x40a913c0	5.283661
89	0x409818f0	4.753044
90	0xbe972ad9	-0.29524878
91	0xbe54367c	-0.20723909
92	0x3dbc9ddd	0.092097975
93	0xbebac17b	-0.3647574
94	0xbf1c8e56	-0.6115469
95	0xbed9737a	-0.42470914
96	0x3b87173e	0.0041226437
97	0xbc9c364e	-0.019068863
98	0xbe5d7992	-0.21628407
99	0x3d53353b	0.051564436
100	0xbeb787bf	-0.35845754
101	0xbe3cf975	-0.18454535
102	0x3d8d95a8	0.0691331
103	0xbe8045d8	-0.25053287
104	0xbde86949	-0.113482065
105	0xbfc61e83	-1.5478061
106	0xbfec78b0	-1.8474331
107	0xbfdebc83	-1.7401279
108	0xbe96752e	-0.29386276
109	0x3e674546	0.2258502
110	0x3e29a157	0.16565453
111	0xbeaab744	-0.33342946
112	0xbdda1eba	-0.10650392
113	0x3c1e56c1	0.009664238
114	0x3dc380bc	0.095460385
115	0x3da67f51	0.081297524
116	0x3e6a4fba	0.22881976
117	0xc01391f6	-2.3057837
118	0xc0823398	-4.068798
119	0xc0172cb1	-2.3621027
120	0xc0d9ebc2	-6.810029
121	0xc118aeb6	-9.542654
122	0xc0e4165f	-7.127731
123	0xc090d5d0	-4.5261
124	0xc0d20cd5	-6.5640664
125	0xc0990b4e	-4.78263
126	0xbe9a50be	-0.30139726
127	0xbe17b528	-0.148152
128	0xbe724b2a	-0.23661485
129	0xbe619a31	-0.22031476
130	0xbcf850fc	-0.030312054
131	0xbe25b887	-0.16183673
132	0x3d9c13db	0.07620975
133	0xbe228580	-0.15871239
134	0x3cbaa2bd	0.022782678
135	0x3fb1bda0	1.3885994
136	0x3f9e8fba	1.2387612
137	0x3eb5d869	0.3551667
138	0x3f795882	0.9740068
139	0x3f018cc3	0.5060541
140	0xbec411e6	-0.38294905
141	0x3f6a654a	0.91560805
142	0x3f5e9e81	0.8696061
143	0xbc34cb30	-0.011034772
144	0xbeb65291	-0.35609868
145	0xbecc1151	-0.3985696
146	0xbf0a44ef	-0.54011434
147	0xbea605b0	-0.32426214
148	0xbdcb90a7	-0.099396996
149	0x3d066f3b	0.03282092
150	0xbe03c413	-0.12867765
151	0xbe967227	-0.29383966
152	0x3db2b97b	0.08726784
153	0x3de76e8a	0.113003805
154	0x3e707a24	0.23484093
155	0xbeb0b469	-0.34512642
156	0x3ebbb06e	0.36658043
157	0x3e97a196	0.29615468
158	0xbed1bf0a	-0.40966064
159	0x3d170a69	0.036875162
160	0x3de00712	0.109388486
161	0xbed9acec	-0.4251474
162	0xbdb45f8a	-0.08807285
163	0x3e05d216	0.13068423
164	0xbe636fcb	-0.22210614
165	0xbe065fdc	-0.13122505
166	0x3e9b346d	0.30313435
167	0xbdace150	-0.084414124
168	0x3e4844b8	0.19557464
169	0x3db421a1	0.08795477
170	0xbed98a03	-0.42488107
171	0xbfcfced2	-1.6234992
172	0xc0b4ab13	-5.645883
173	0x3fe3028c	1.7735152
174	0xc03b3fc6	-2.9257674
175	0xc0e5a673	-7.1765685
176	0x3f857407	1.0426034
177	0xbece0191	-0.4023557
178	0xc0835fc5	-4.1054406
179	0x4047fc22	3.124764
180	0x3d8ee914	0.0697805
181	0xbe6a76f7	-0.22896944
182	0xbe995110	-0.29944658
183	0xbe1d5438	-0.15364158
184	0xbf0137e5	-0.50475913
185	0xbe246d47	-0.16057311
186	0x3ddb6f2a	0.10714562
187	0x3d7df9aa	0.062005676
188	0xbed7121f	-0.42006013
189	0xbd0154ae	-0.031574897
190	0xbf6eb292	-0.93241227
191	0x3e3f26d0	0.1866715
192	0xbdc3daf1	-0.09563244
193	0xbf2060f6	-0.6264795
194	0x3e9d33d3	0.307036
195	0xbe1e2351	-0.1544316
196	0xbf4a74ab	-0.7908427
197	0x3efc5813	0.49285945
198	0xbf2a12d1	-0.6643496
199	0xbf408e5e	-0.75217235
200	0xbf371fe7	-0.71533054
201	0xb9d94fa8	-0.00041448814
202	0xbe867bd0	-0.26266336
203	0x3d0e5463	0.034748446
204	0xbccd84af	-0.025087683
205	0xbdb51c8d	-0.08843336
206	0xbdf86d22	-0.121301904
207	0xbf6ca66b	-0.92441434
208	0xbf641ab3	-0.8910324
209	0xbf8390ef	-1.0278605
210	0x3e290145	0.1650439
211	0xbd2f2114	-0.042756155
212	0xbe7ee68f	-0.24892639
213	0x3e7bb9af	0.24582551
214	0x3e80b7dc	0.25140274
215	0xbd430f1f	-0.047621842
216	0xbcf394d3	-0.02973405
217	0x3e9323c6	0.2873823
218	0x3db8cea4	0.090237886
219	0x3e373bf5	0.17893966
220	0xbed0c50a	-0.4077533
221	0x3e0418c7	0.12900077
222	0xbe0f69b7	-0.14005171
223	0x3dafc8fa	0.08583255
224	0xbe21061c	-0.15724987
225	0x4071e636	3.779676
226	0x40bedd19	5.9644895
227	0x40e7ccc8	7.2437477
228	0xbfd5df8c	-1.6708846
229	0x3f624757	0.88390106
230	0x40342cae	2.815227
231	0xbecffda1	-0.4062319
232	0x40211eb3	2.5174987
233	0x408469f8	4.1379356
234	0xbf08d846	-0.5345501
235	0xbe58df85	-0.21179016
236	0xbeb6d36b	-0.35708174
237	0x3e5e1ca9	0.2169062
238	0xbe6b8444	-0.22999674
239	0xbe71f3a4	-0.23628098
240	0x3e704498	0.23463666
241	0xbe81fdf9	-0.25389078
242	0x3d892c02	0.06697847
243	0x3eb2743c	0.34854305
244	0x3f46a655	0.7759755
245	0x3bdb9f3c	0.006702332
246	0x3f428d3f	0.75996774
247	0x3fb2f82d	1.3981987
248	0x3f33bcab	0.7020976
249	0x3ef8d37f	0.4859886
250	0x3f868c74	1.0511613
251	0x3e4dc518	0.20094717
252	0xbe18d983	-0.14926724
253	0x3ba38e56	0.004991333
254	0xbe7c1a3e	-0.24619386
255	0xbeddd555	-0.43326822

initial_conv.bias f4 [32]
0	0x3f67db2f	0.9056882
1	0xc014e7cd	-2.326648
2	0xbfc6acad	-1.5521446
3	0xbdbca84f	-0.0921179
4	0xbfeae2e7	-1.8350495
5	0x3e4b8f0b	0.19878785
6	0x3eaefc8f	0.34177062
7	0x3f06246a	0.52399313
8	0x3d1d335d	0.038379062
9	0x3f795f17	0.9741072
10	0xbe427ba2	-0.18992475
11	0x3ded6abd	0.11592624
12	0xc01776cd	-2.366626
13	0x3e98fbdd	0.29879656
14	0x3f1a64ba	0.60309947
15	0x3f4b2371	0.79350954
16	0x3f300bfe	0.687683
17	0x3dc77a66	0.097401425
18	0x3f0f6e0b	0.5602729
19	0x3e6ce0b6	0.23132595
20	0x3f9bb912	1.2165854
21	0xbf1fdded	-0.62448007
22	0xbcab871b	-0.020938447
23	0x3f236a38	0.6383395
24	0xbe5ae39f	-0.21375893
25	0xbc509d31	-0.01273279
26	0x3ff19841	1.8874589
27	0x3f1d3395	0.6140683
28	0xbe47e4ab	-0.19520824
29	0x3f30b4a0	0.6902561
30	0xbf99bd34	-1.2010865
31	0xbe5caa9a	-0.21549454

residual_blocks.0.conv1.weight f4 [32, 32, 3, 3]
0	0xbd097411	-0.033557955
1	0xbdc886aa	-0.0979131
2	0xbbfbb5db	-0.007681591
3	0xbddb36ff	-0.10703849
4	0xbe1b011e	-0.15137145
5	0x3b2e376f	0.0026583334
6	0xbdd6d526	-0.104898736
7	0xbe428854	-0.18997318
8	0xbc171b26	-0.009222781
9	0xbdf2a7b9	-0.11848397
10	0xbdd4e5c6	-0.10395388
11	0xbe419a55	-0.18906529
12	0xbe92836c	-0.28615892
13	0xbc4d9c04	-0.012549404
14	0xbe1ae647	-0.15126906
15	0xbe4c2d32	-0.19939116
16	0xbd8da893	-0.069169186
17	0xbe4efe24	-0.20214134
18	0xbdae5c33	-0.08513679
19	0x3a5b039d	0.00083547254
20	0xbd9b6466	-0.07587509
21	0xbe4e6490	-0.20155549
22	0x3daf9f8d	0.08575354
23	0xbd413648	-0.047170907
24	0xbdd4f42a	-0.10398133
25	0xbda1b872	-0.07896508
26	0xbc5af9c6	-0.013365215
27	0x3d024faa	0.031814255
28	0xbc4cdaa9	-0.0125033045
29	0x3cc5f442	0.024164323
30	0x3c408e8e	0.011752738
31	0x3c3689e0	0.01114127
32	0xbcada3c2	-0.02119625
33	0x3d14f91d	0.036370385
34	0xbcb0cdda	-0.021582533
35	0x3d659b6c	0.056056425
36	0xbdf1decc	-0.11810073
37	0xbd4dd570	-0.050252378
38	0xbdc1786e	-0.09446798
39	0xbe417dee	-0.18895695
40	0x3da37ffb	0.07983395
41	0xbe00e268	-0.12586367
42	0xbe265e95	-0.16247018
43	0xbd98b0c7	-0.074555926
44	0xbda9a3da	-0.08283205
45	0xbdbfc94f	-0.093645684
46	0xbdf885e9	-0.12134916
47	0xbd29c038	-0.04144308
48	0xbe56992e	-0.20956871
49	0xbe38984a	-0.18026844
50	0xbdb867bb	-0.0900416
51	0xbe291931	-0.16513516
52	0xbdd40b2d	-0.10353694
53	0x39edac95	0.00045332746
54	0xbdf3dcee	-0.11907373
55	0xbd9eb195	-0.07748715
56	0xbe091951	-0.13388564
57	0xbd819c09	-0.063285895
58	0xbde02651	-0.10944808
59	0xbdb068f5	-0.08613769
60	0xbe043b0f	-0.12913154
61	0xbc97242f	-0.01844987
62	0xbd68e330	-0.056857288
63	0xbe0092b1	-0.12555958
64	0xbdeb42e9	-0.114873715
65	0xbdf34ed5	-0.118802704
66	0xbe07923b	-0.13239376
67	0xbe058b79	-0.13041486
68	0xbd96d574	-0.07364932
69	0xbe693491	-0.22773959
70	0xbe50075b	-0.20315306
71	0xbcbbdbbf	-0.022931932
72	0xbd3f3bd7	-0.046687927
73	0x3bf476a2	0.007460431
74	0xbe0e9a39	-0.13926019
75	0xbcbf6a67	-0.023366166
76	0xbc7971b2	-0.015224861
77	0xbe0d631d	-0.1380734
78	0x3a8b855f	0.0010644606
79	0xbd658dd6	-0.05604347
80	0xbd3d17ba	-0.046165206
81	0x3dd05d38	0.1017403
82	0x3cea00d4	0.028564848
83	0xbdde3296	-0.10849492
84	0x3db98717	0.090589695
85	0x3c2a37ca	0.010389278
86	0xbc0fefb2	-0.008785175
87	0x3cc5e301	0.024156095
88	0x3c3acd41	0.011401475
89	0xb95819f9	-0.00020609041
90	0xbd91a578	-0.07111639
91	0xbc5dd308	-0.013539083
92	0xbd635d05	-0.055508632
93	0xbcdbe12d	-0.02684077
94	0xbc707046	-0.014675206
95	0x3cb453f2	0.022012684
96	0xbd57400d	-0.052551318
97	0x3b8fd2f4	0.0043891612
98	0xbd08fa6b	-0.033441942
99	0xbdbd6b06	-0.09248929
100	0xbde90fc7	-0.113799624
101	0xbdf6efd0	-0.12057459
102	0xbd00a0ea	-0.03140346
103	0xbdb41c68	-0.087944806
104	0xbd9adae4	-0.07561281
105	0xbdced947	-0.10100036
106	0xbdc931df	-0.09823965
107	0xbd2d5a61	-0.04232252
108	0xbcc6b985	-0.024258384
109	0xbd6df689	-0.058096442
110	0xbe103686	-0.14083299
111	0xbe0d3a0a	-0.13791671
112	0xbd7257ce	-0.05916577
113	0xbddf6b8f	-0.10909187
114	0xbdda3aeb	-0.10655769
115	0xbd03ab8a	-0.032146014
116	0xbd8a6ba1	-0.0675881
117	0xbe5c4eb6	-0.21514401
118	0xbdfe52a8	-0.12418109
119	0xbd9edfaa	-0.07757504
120	0xbe41f0f2	-0.1893957
121	0xbdc86226	-0.09784345
122	0xbd847d2b	-0.064691864
123	0xbe20871c	-0.1567654
124	0xbe263df8	-0.16234577
125	0xbe389882	-0.18026927
126	0xbda6e104	-0.08148387
127	0xbe04c2c1	-0.12964918
128	0xbe17d6ed	-0.14828081
129	0xbddc95c4	-0.10770753
130	0xbdac831f	-0.08423447
131	0xbe079429	-0.13240112
132	0xbe1401af	-0.14453767
133	0xbddd98f2	-0.10820188
134	0xbd221739	-0.039572928
135	0xbe3b70bd	-0.18304725
136	0xbe21ac3a	-0.15788355
137	0xbdbd9d52	-0.09258522
138	0xbe69f79f	-0.22848366
139	0xbe2d6922	-0.16934636
140	0xbe3dc72e	-0.18533012
141	0xbe66ef7c	-0.22552294
142	0xbdb1e71a	-0.08686657
143	0xbdca1e11	-0.09869016
144	0xbe3f6320	-0.18690157
145	0xbd67f81d	-0.056633104
146	0xbdf2724e	-0.11838208
147	0xbe5afe7d	-0.21386142
148	0xbdbb6e47	-0.09151893
149	0xbdaa2417	-0.08307665
150	0xbe950a11	-0.29109243
151	0xbd1fd825	-0.03902449
152	0xbdad77ab	-0.084700905
153	0xbe07a885	-0.13247879
154	0xbe0266a4	-0.12734467
155	0xbdb7b79d	-0.08970568
156	0xbe0bcdfa	-0.13652793
157	0xbe0a6b55	-0.13517506
158	0xbe14a03a	-0.14514247
159	0xbe13b2c2	-0.1442366
160	0xbda8c9ba	-0.08241601
161	0xbdd8cbee	-0.105857715
162	0xbdb1c3b0	-0.086799026
163	0xbe1aa4d5	-0.15101941
164	0xbda05269	-0.078282185
165	0xbe51f3e3	-0.20503192
166	0x3d6e995b	0.05825172
167	0xbe33e858	-0.17569101
168	0xbe2ed0c6	-0.17071828
169	0xbdc76d49	-0.09737641
170	0xbd8d4a80	-0.06898975
171	0xbddfc8f9	-0.10927004
172	0xbe109e24	-0.14122826
173	0xbe669abd	-0.22519965
174	0xbe03f0a6	-0.12884769
175	0xbe270044	-0.16308695
176	0xbe4f1c14	-0.20225555
177	0xbde9864d	-0.11402569
178	0xbe054c5f	-0.13017415
179	0xbe3d023f	-0.18457888
180	0xbbbe7f46	-0.005813512
181	0xbdac43b8	-0.08411354
182	0xbda989a0	-0.08278203
183	0x3d02486b	0.031807344
184	0xbc95cb4a	-0.018285412
185	0x3ccd3805	0.025051126
186	0xbb2a3272	-0.002597001
187	0xbcef2a7f	-0.029195068
188	0x3d4533ca	0.048145093
189	0xbe1e6c32	-0.1547096
190	0xbdab8001	-0.08374024
191	0xbe1bdfcb	-0.15222089
192	0xbdccf890	-0.10008347
193	0xbd30e8a7	-0.043190625
194	0xbd05cb19	-0.032664392
195	0xbddaf0aa	-0.10690434
196	0xbd716619	-0.05893526
197	0xbd732cf1	-0.05936903
198	0xbe13ed77	-0.14446054
199	0xbe0d2ac5	-0.13785847
200	0xbdd41693	-0.10355868
201	0xbe1c5004	-0.15264899
202	0xbdd8e227	-0.1059001
203	0xbb83e52d	-0.0040251226
204	0x3cef7f79	0.029235588
205	0x3e0d017e	0.137701
206	0x3cd971b4	0.026543476
207	0xbdd403a0	-0.10352254
208	0xbd1b5d33	-0.03793068
209	0xbd9d592e	-0.07683025
210	0xbe169225	-0.14704187
211	0xbe310e5c	-0.17290634
212	0xbdaec729	-0.085340805
213	0xbe4e91a8	-0.20172751
214	0xbe545e95	-0.20739205
215	0xbd148ced	-0.03626721
216	0x3cee40d9	0.029083656
217	0xbc21446b	-0.009842972
218	0x3c2da9b1	0.01059954
219	0x3c546076	0.012962451
220	0x3c447296	0.01199021
221	0x3bbde198	0.005794715
222	0xbbe4ff21	-0.0069884215
223	0x3d4c4be3	0.04987706
224	0x3d2772a9	0.040880833
225	0xbe256efa	-0.16155615
226	0xbd9e3340	-0.07724619
227	0xbdbbeb7b	-0.09175774
228	0x3c1b97e7	0.009496666
229	0x3db9a45f	0.090645544
230	0xbd9451d2	-0.072421685
231	0x3d0a3f3a	0.033751704
232	0x3d2e0919	0.042489145
233	0xbd9cad8f	-0.07650291
234	0xbdac2b4f	-0.08406698
235	0xbe028828	-0.12747252
236	0xbe3602c3	-0.17774491
237	0x3d315cf9	0.043301556
238	0x3df6ec38	0.12056774
239	0x3d9d4cb3	0.07680645
240	0xbd457438	-0.048206538
241	0xbd3e6009	-0.046478305
242	0xbcc627a9	-0.024188833
243	0xbe12e1f8	-0.14344013
244	0xbde37ca8	-0.11107761
245	0xbe5ddac3	-0.21665482
246	0xbd86cc58	-0.06581944
247	0xbe170dfe	-0.14751431
248	0xbe27e3ec	-0.16395539
249	0xbe0de3f8	-0.13856494
250	0xbe39fc2e	-0.18162605
251	0xbe3d6ac0	-0.18497753
252	0x3d474575	0.048650224
253	0xbc35cc16	-0.011096021
254	0x3ba73ed2	0.0051039243
255	0xbd3c7d18	-0.046017736

residual_blocks.0.conv1.bias f4 [32]
0	0xbdb88e72	-0.09011544
1	0xbda0dffe	-0.07855223
2	0xbd1fc21d	-0.03900348
3	0xbe374915	-0.17898972
4	0xbdc78285	-0.097416915
5	0xbd9e560b	-0.07731255
6	0xbdfd08f0	-0.1235522
7	0x3d985a42	0.0743909
8	0xbc55b089	-0.013042578
9	0x3f5a8cd9	0.85371166
10	0xbd0ff751	-0.03514797
11	0x3f0944f8	0.5362086
12	0xc06ddc3e	-3.7165675
13	0xbf938aa2	-1.1526682
14	0xbd1ad058	-0.03779635
15	0xbd6e1b4b	-0.058131497
16	0x3c3f7b6e	0.011687143
17	0x3c71ab6c	0.014750343
18	0xbd0de943	-0.034646284
19	0xbee43369	-0.44570473
20	0xbe1d3ff5	-0.15356429
21	0x3d60d0ff	0.054886814
22	0xbd8715d8	-0.06595963
23	0xbd9029e5	-0.07039241
24	0x3cb0fe3f	0.021605609
25	0xbce7fdcc	-0.028319262
26	0xbdfa734b	-0.12229022
27	0xbdb82bad	-0.089927055
28	0xbd2e174d	-0.04250269
29	0xbe03c4ae	-0.12867996
30	0xbdf475b7	-0.11936515
31	0x3f1ef4db	0.6209237

residual_blocks.0.conv2.weight f4 [32, 32, 3, 3]
0	0xbacf085f	-0.0015795341
1	0xbe131800	-0.14364624
2	0xbe1b1a2f	-0.15146707
3	0xbcf43c9d	-0.029814059
4	0xbcd51f66	-0.026015949
5	0xbda3c4f4	-0.0799655
6	0xbd053953	-0.03252537
7	0xbe312a43	-0.17301278
8	0xbe7506ee	-0.23928425
9	0xbcdf3b0a	-0.027249832
10	0x3d469731	0.04848403
11	0xbba8f9ec	-0.005156746
12	0xbc8bcc79	-0.017065274
13	0x3d126ef7	0.035750356
14	0x3d322b7a	0.043498494
15	0x3c0c731f	0.008572369
16	0xbd348737	-0.044074263
17	0x3d43427e	0.047670834
18	0xbe23295b	-0.15933745
19	0xbe6e8a76	-0.23295006
20	0xbee25c12	-0.4421087
21	0xbdb123a1	-0.08649374
22	0xbde6fc89	-0.11278636
23	0xbe3d64b4	-0.18495446
24	0xbe425ac4	-0.18979937
25	0x3e36008e	0.17773649
26	0xbcfa7528	-0.030573443
27	0x3d3044e0	0.043034434
28	0xbe3d1d0d	-0.18468113
29	0xbe69c98b	-0.22830789
30	0x3d0ae2b3	0.033907603
31	0xbda1df93	-0.079039715
32	0xbe90a78f	-0.28252837
33	0xbd791688	-0.060812503
34	0xbe3f5c2e	-0.18687508
35	0xbe906425	-0.28201404
36	0xbe7f4a04	-0.24930578
37	0xbe50a3bc	-0.2037496
38	0x3e4e9900	0.20175552
39	0x3d9834f7	0.07431977
40	0x3da5d048	0.08096367
41	0xbe9c44b6	-0.30521172
42	0xbd38f352	-0.045153923
43	0x3dc6a77f	0.09699916
44	0x3dc66529	0.096872635
45	0x3d339053	0.04383881
46	0x3d3bf622	0.045889027
47	0x3d3c2c39	0.04594061
48	0x3d85bc3f	0.06530046
49	0x3c74c613	0.014939803
50	0xbdbd5d02	-0.092462555
51	0x3bc1c062	0.0059128264
52	0xbd82f462	-0.063942686
53	0x3b4d87d7	0.0031361484
54	0x3d0f3871	0.034965936
55	0x3ca591e0	0.02021116
56	0xbd29f209	-0.04149059
57	0xb9a18c4e	-0.00030812848
58	0x3a15e0e6	0.00057174114
59	0x3c00326c	0.0078245215
60	0xbd326e9d	-0.04356252
61	0x3d235e34	0.03988476
62	0xbcd943d5	-0.026521603
63	0x3dd0bef7	0.10192674
64	0xbe8e3d7b	-0.2778128
65	0xbde455d0	-0.1114918
66	0xbd24f5af	-0.040273365
67	0xbe90aef2	-0.28258473
68	0xbe31b1c7	-0.17352973
69	0x3c1d952d	0.009618086
70	0xbe7de199	-0.2479309
71	0xbdcd5735	-0.10026399
72	0xbc4a0c5f	-0.012332051
73	0x3cd37e7b	0.025817147
74	0xbbb006dc	-0.0053719115
75	0x3cef2479	0.029192196
76	0x3d7dc4dc	0.061955318
77	0xbcda0d79	-0.026617752
78	0x3d0aaf75	0.033858735
79	0xbc92cdf5	-0.017920474
80	0x3cdeafc1	0.027183415
81	0x3d1aebfe	0.037822716
82	0x3e911a1a	0.28340226
83	0xbd47f0e7	-0.048813727
84	0xbe343761	-0.1759925
85	0x3c5609c9	0.013063856
86	0xbe9156f8	-0.28386664
87	0xbe971fa2	-0.2951632
88	0xbd9d4402	-0.07678987
89	0xbdf6ce7f	-0.12051105
90	0x3bab439a	0.0052265646
91	0xbd2a59b2	-0.041589446
92	0xbd72dbfe	-0.059291832
93	0x3a8f73a1	0.0010944494
94	0xbd17160a	-0.036886252
95	0xbd2c4250	-0.042055428
96	0x3a1790da	0.00057817774
97	0x3bbeb13e	0.0058194688
98	0x3cd0a7b4	0.025470592
99	0x3e31c9be	0.17362115
100	0xbe7d0737	-0.24709783
101	0x3e8c6d2e	0.27427047
102	0x3e81d362	0.25356585
103	0x3dbe7708	0.09300047
104	0xbd6eda4d	-0.058313657
105	0x3dd701d0	0.104983926
106	0xbd764170	-0.060121
107	0x3eb7a854	0.35870612
108	0xbf464374	-0.77446675
109	0xbf36f2a7	-0.7146401
110	0xbef71db5	-0.48264852
111	0xbe9fd24d	-0.31215134
112	0xbf1f603b	-0.6225621
113	0xbf038072	-0.51367867
114	0x3dabda02	0.08391191
115	0xbfb3c4df	-1.4044455
116	0x3cba1ed1	0.022719773
117	0x3e2f623d	0.17127319
118	0x3e13b9aa	0.14426294
119	0x3e765433	0.24055557
120	0xbf295065	-0.661383
121	0xbee4a035	-0.44653478
122	0xbd836d7d	-0.064173676
123	0xbdad1163	-0.08450582
124	0xbb7d2279	-0.0038625284
125	0x3d541cea	0.051785387
126	0xbcca083d	-0.024662131
127	0xbca950ee	-0.020668473
128	0x3be05025	0.0068454915
129	0xb91ddd29	-0.00015055075
130	0x3d34f863	0.044182193
131	0x3d73a769	0.059485827
132	0xbd15dbd1	-0.036586586
133	0x3d22558d	0.03963237
134	0x3c978813	0.018497502
135	0x3cd7afd5	0.02632896
136	0xbd84520f	-0.06460964
137	0xbd40514e	-0.04695254
138	0xbc99a264	-0.018754192
139	0x3d34bfdc	0.044128284
140	0x3d4a01e2	0.0493182
141	0xbcb9d396	-0.0226839
142	0xbd60a6a6	-0.05484643
143	0xbd413d84	-0.047177806
144	0xbb21b1ad	-0.0024672553
145	0x3b297da3	0.0025862239
146	0xbd0b11f4	-0.03395267
147	0x3bfbf63c	0.0076892655
148	0xbc53b4ff	-0.012921571
149	0x3cf29e21	0.029616417
150	0xbce2056e	-0.02759048
151	0xbd1664aa	-0.036717094
152	0xba9939e4	-0.0011690226
153	0x3d27fa32	0.04101009
154	0x3e8fb93f	0.2807102
155	0xbdae91f9	-0.08523936
156	0x3d35110b	0.044205707
157	0x3b995348	0.0046791174
158	0xbdd75d38	-0.10515827
159	0x3d74c1b2	0.059755035
160	0xbd83eff3	-0.06442251
161	0xbe73da1d	-0.23813672
162	0xbaeafb78	-0.0017927727
163	0xbbf21a4a	-0.007388388
164	0xbd456e8d	-0.048201133
165	0xbcd12b62	-0.025533382
166	0x3ced65fc	0.028979294
167	0xbac1e4b0	-0.0014792886
168	0x3b8b7f88	0.0042571463
169	0xbb8871b8	-0.004163947
170	0xba2a7358	-0.0006502173
171	0xbef545a6	-0.479047
172	0x3e71e39c	0.23621982
173	0x3ec8e9d3	0.39240894
174	0xbcae0466	-0.021242332
175	0x3dfe4fc0	0.12417555
176	0xbecc8212	-0.39942986
177	0xbe3e7f7f	-0.18603323
178	0x3ec0282f	0.37530658
179	0x3db79c96	0.08965413
180	0x3d52dab4	0.051478103
181	0xbd101447	-0.035175588
182	0x3cc8adda	0.024496961
183	0x3df25555	0.11832682
184	0xbbd9d64d	-0.006647861
185	0x3e07ddfa	0.13268271
186	0x3cd5a8b6	0.026081424
187	0x3d999054	0.074982315
188	0x3daca3db	0.084296905
189	0x3dadf8ee	0.08494745
190	0xbb8a330e	-0.004217512
191	0xbe233cc3	-0.15941148
192	0xbf0c526d	-0.5481327
193	0xbf31f1a2	-0.6950933
194	0x3eb2c903	0.34918985
195	0xbf1958ca	-0.59901106
196	0xbf0bc54b	-0.5459792
197	0xbed48217	-0.415055
198	0xbd07c067	-0.033142474
199	0xbdf651b6	-0.12027304
200	0x3e326aca	0.1742355
201	0xbf0523d0	-0.5200777
202	0xbe9042bd	-0.28175917
203	0x3e5c89da	0.21536961
204	0xbe3b5161	-0.18292762
205	0xbdbba1be	-0.09161709
206	0xbec11102	-0.37708288
207	0x3b2b8fcc	0.002617824
208	0xbc417ca2	-0.0118095
209	0xbd604a15	-0.05475815
210	0xbcb01888	-0.021496072
211	0xbd367987	-0.04454949
212	0xbb5f23bd	-0.0034048401
213	0x3ce23476	0.027612906
214	0x3d21eb8d	0.03953128
215	0xbd61d4a7	-0.05513444
216	0x3c0e9837	0.008703283
217	0xbd4321fe	-0.04763984
218	0x3c0280b6	0.007965257
219	0x3c5a044e	0.01330669
220	0xbd690885	-0.05689289
221	0xbd392626	-0.045202397
222	0xbd723e7a	-0.059141614
223	0xbc5f8c5a	-0.013644302
224	0x3c199697	0.009374282
225	0x3ab91367	0.0014120162
226	0x3d7e73e4	0.06212224
227	0x3cebbda6	0.028776955
228	0x3cf1cd3b	0.029516807
229	0xbc56ef0e	-0.0131185185
230	0xbc0a6b5c	-0.008448448
231	0xbca12e2c	-0.019675337
232	0xbc7b6102	-0.015342953
233	0x3d47664e	0.04868155
234	0xbdc1d6ee	-0.09464823
235	0x3d1a5137	0.03767511
236	0x3d5f31a6	0.054490708
237	0xbcb090ec	-0.02155348
238	0x3c9d8017	0.019226117
239	0x3decfc4e	0.11571561
240	0xbd13a274	-0.0360436
241	0x3cb54c3a	0.022131074
242	0x3d6e97df	0.058250304
243	0xbe08c8a5	-0.1335779
244	0xbe4be61e	-0.19912001
245	0xbe1538ca	-0.14572445
246	0xbdb5c61b	-0.08875676
247	0xbe193455	-0.1496137
248	0xbe32d641	-0.17464544
249	0x3c21aa00	0.009867191
250	0x3c48c17a	0.01225316
251	0xbd7a6138	-0.06112787
252	0xbd06eeea	-0.03294269
253	0x3d06a8af	0.032875713
254	0x3c508136	0.012726119
255	0xbd61ad19	-0.05509672

residual_blocks.0.conv2.bias f4 [32]
0	0xbec18c0b	-0.37802157
1	0xc044374e	-3.0658755
2	0xc00fc3c2	-2.246323
3	0x3e348735	0.17629702
4	0xbfceccf3	-1.6156296
5	0x3e823b3b	0.25435814
6	0xbdba51a9	-0.09097607
7	0x3f5af854	0.8553517
8	0x40192cdf	2.3933637
9	0x3eb60798	0.3555267
10	0x3f8a71eb	1.0816015
11	0x3e9945c8	0.2993605
12	0xc016e364	-2.3576288
13	0xbfc3c865	-1.529553
14	0xbf91ee2e	-1.1400812
15	0xbe0a0bf2	-0.1348112
16	0xbfa54070	-1.291029
17	0x3e56e89f	0.20987175
18	0xbf6164c5	-0.8804439
19	0x3f6cf814	0.9256604
20	0x3f8553a7	1.0416154
21	0xbe8e2fd3	-0.27770862
22	0xbf6da7cd	-0.9283417
23	0x3ea60de6	0.3243248
24	0xbf0482cc	-0.5176208
25	0xc0142dc9	-2.3152945
26	0xbe582173	-0.2110651
27	0xbfa5d9d4	-1.2957101
28	0xbf94e8e2	-1.163357
29	0xbf0f7d7a	-0.5605084
30	0xbe7a7ab1	-0.24460866
31	0x3f2dafa1	0.67846113

residual_blocks.1.conv1.weight f4 [32, 32, 3, 3]
0	0xbcac81ed	-0.021058047
1	0x3ed3f2ad	0.41396084
2	0x3eec0968	0.46100926
3	0xbeb00193	-0.343762
4	0xbdc6eccc	-0.09713134
5	0x3e3dfe50	0.18554044
6	0xbd634278	-0.05548331
7	0x3e4eeb44	0.20206934
8	0x3f0e1088	0.55493975
9	0xbee5948c	-0.44839895
10	0xbf1da6a3	-0.6158239
11	0xbee7c150	-0.45264673
12	0xbe6f5bc9	-0.23374857
13	0xbe94c98b	-0.29060015
14	0xbe019e50	-0.12658048
15	0xbe373cf8	-0.17894351
16	0xbedbf3d4	-0.42959464
17	0xbe88635f	-0.26638314
18	0xbe24cf10	-0.16094613
19	0xbee8d2b8	-0.45473266
20	0xbee7c3f2	-0.45266682
21	0xbdf6c00f	-0.12048351
22	0xbee1a070	-0.44067717
23	0xbeb96cf7	-0.36215946
24	0xbed7212c	-0.42017496
25	0xbedce99f	-0.4314699
26	0xbec09929	-0.37616852
27	0x3c3b219b	0.011421586
28	0x3900090e	0.00012210404
29	0x3aeddc8e	0.0018147395
30	0xbc861b1f	-0.016370354
31	0xbb92f131	-0.0044843187
32	0xbc894be8	-0.016759828
33	0xbd7ba0c0	-0.0614326
34	0x3cf2ccd0	0.029638678
35	0xbd3922d8	-0.045199245
36	0xbe9f8c61	-0.31161788
37	0xbef38b23	-0.4756709
38	0xbf144cdd	-0.57929784
39	0xbe67581b	-0.22592203
40	0xbf1e008e	-0.61719596
41	0xbf17524c	-0.5910995
42	0xbe96dc8a	-0.29465133
43	0xbf28ad74	-0.6588967
44	0xbf2ff003	-0.68725604
45	0xbf1659c3	-0.58730716
46	0xbdf68ed8	-0.12038964
47	0xbecccddd	-0.4000081
48	0xbeb83ebf	-0.3598537
49	0xbe2317cb	-0.15927045
50	0xbef06cf6	-0.4695813
51	0xbead72d5	-0.33876672
52	0xbeba647f	-0.36404797
53	0xbf031523	-0.5120413
54	0xbda7d21c	-0.08194372
55	0xbe5df613	-0.21675901
56	0xbe041e19	-0.12902106
57	0xbe27c1af	-0.16382478
58	0x3e9d961d	0.3077859
59	0x3d054a41	0.032541517
60	0xbe15d139	-0.14630593
61	0x3e318fdb	0.17340033
62	0x3dd5da7c	0.10442063
63	0xbe6669d5	-0.22501309
64	0xbe7c059c	-0.24611515
65	0x3eaf5ce6	0.34250563
66	0xbc6a5c26	-0.014304196
67	0xbe357703	-0.1772118
68	0xbe907eb6	-0.28221673
69	0xbdb8508a	-0.089997366
70	0x3ecae024	0.3962413
71	0x3f21d213	0.6321117
72	0xbe584bce	-0.21122667
73	0xbd367fef	-0.0445556
74	0x3db6a262	0.08917691
75	0xbe54aa22	-0.20768026
76	0xbd3c5b6c	-0.045985624
77	0xbe1f43b2	-0.15553167
78	0xbee0f684	-0.43938076
79	0xbe05edae	-0.13078949
80	0xbd7fca53	-0.06244881
81	0xbecd5dc3	-0.40110597
82	0xbf1d917d	-0.6155012
83	0xbe4cdc35	-0.20005877
84	0xbe7de85f	-0.24795674
85	0xbf02d74f	-0.51109785
86	0xbeebcbd2	-0.4605394
87	0xbece8330	-0.40334463
88	0xbdab4ab9	-0.083638616
89	0xbed3a9b2	-0.41340405
90	0x3bcd5b0a	0.006266956
91	0x3c2be166	0.010490751
92	0x3e888a81	0.2666817
93	0x3df7621d	0.120792605
94	0x3d87e4f8	0.06635469
95	0x3e500018	0.20312536
96	0x3d93001e	0.07177757
97	0xbd95b3ec	-0.07309708
98	0x3e012430	0.1261146
99	0xbe20e457	-0.15712105
100	0x3e0cfc25	0.1376806
101	0x3dda69ce	0.10664712
102	0xbe100821	-0.14065601
103	0xbc80b624	-0.015711851
104	0xbd2e63b0	-0.04257554
105	0x3e181216	0.14850649
106	0x3e06e9ff	0.131752
107	0xbea58013	-0.32324275
108	0xbf32e093	-0.69873923
109	0xbf0eee2c	-0.5583217
110	0xbebdaee6	-0.370475
111	0xbe8d07e8	-0.27545094
112	0xbec2ab30	-0.3802123
113	0xbe084951	-0.13309218
114	0xbe4d73d0	-0.2006371
115	0xbe04c06e	-0.12964031
116	0xbd6b65dc	-0.057470188
117	0xbe9d277a	-0.3069418
118	0xbee348f6	-0.44391602
119	0xbf04c63f	-0.51865
120	0xbdc2cc18	-0.09511584
121	0xbec0d090	-0.3765912
122	0xbece605f	-0.403079
123	0xbe2d0758	-0.16897333
124	0xbeb529d9	-0.3538349
125	0xbee741c1	-0.45167354
126	0x3e04b1d8	0.12958467
127	0x3e5023fa	0.20326224
128	0xbee88589	-0.4541438
129	0xbe1ab17b	-0.15106766
130	0xba750395	-0.0009346542
131	0xbe471f6a	-0.19445577
132	0xbe580490	-0.2109549
133	0x3e92c641	0.2866688
134	0xbe89c263	-0.26906118
135	0xbec233bb	-0.37930092
136	0xbb34b889	-0.0027575812
137	0x3efc5422	0.49282938
138	0xbf1591ce	-0.58425605
139	0xbd0cc124	-0.03436388
140	0x3e92f383	0.2870141
141	0xbf669ca8	-0.9008279
142	0xbe8620a3	-0.26196775
143	0xbefa11f6	-0.48841828
144	0x3d701e6e	0.05862277
145	0xbd277dce	-0.04089146
146	0xbdf738a8	-0.12071353
147	0x3d8864d7	0.06659859
148	0xbebd1f74	-0.3693806
149	0xbd485b4f	-0.048915204
150	0x3da27ee9	0.079343624
151	0xbec564b9	-0.38553408
152	0xbda54b42	-0.08070995
153	0xbe560287	-0.20899402
154	0xbdf371e5	-0.11886958
155	0xbead2b45	-0.33822075
156	0xbe8e7da4	-0.2783023
157	0xbebe53dd	-0.37173358
158	0x3d30923c	0.04310821
159	0xbf04c0da	-0.5185677
160	0xbea4e73b	-0.32207665
161	0xbd41b176	-0.04728838
162	0xbeb53d81	-0.35398486
163	0x3e97a318	0.29616618
164	0xbc24a59f	-0.010049253
165	0xbe912033	-0.2834488
166	0x3e11a914	0.14224654
167	0xbcd210e2	-0.025642816
168	0xbe8f63de	-0.2800588
169	0x3e730eb5	0.23736079
170	0xbd5ae35a	-0.053439476
171	0xbe5cfa61	-0.21579887
172	0xbe9212f0	-0.28530073
173	0xbd6a7aa3	-0.05724586
174	0xbd93611d	-0.07196257
175	0x3dcddb65	0.10051612
176	0x3eba61d0	0.3640275
177	0x3da819fa	0.0820808
178	0xbd909c04	-0.070610076
179	0x3f0c67e6	0.54846036
180	0xbf4c838e	-0.79888237
181	0xbed4f0ba	-0.4158991
182	0xbf19805d	-0.5996149
183	0xbef5d2cf	-0.48012397
184	0xbeb76d43	-0.35825548
185	0xbf182736	-0.5943483
186	0xbe4dd7bb	-0.20101826
187	0x3e13f8f3	0.14450435
188	0xbeac3ebe	-0.33641618
189	0xbeb6e750	-0.35723352
190	0xbe611b17	-0.2198299
191	0xbe90ff17	-0.28319618
192	0xbeb21f05	-0.3478929
193	0xbe6a7aee	-0.22898456
194	0xbe3ba55f	-0.18324803
195	0xbee4685e	-0.44610876
196	0xbea7d63d	-0.32780638
197	0xbea9fe92	-0.33202034
198	0xbea61299	-0.32436064
199	0x3dfe89c9	0.12428624
200	0x3eb2a8c6	0.3489439
201	0xbe2ea849	-0.17056383
202	0x3e272fb8	0.16326797
203	0xbe066b15	-0.13126786
204	0xbec425bb	-0.38310036
205	0xbd2c0fe4	-0.042007342
206	0xbdc78833	-0.09742775
207	0x3da1ec35	0.07906381
208	0xbdaa433a	-0.08313604
209	0xbd9ec7b1	-0.07752932
210	0x3e3cc11f	0.18433045
211	0x3e97b0ae	0.29626983
212	0x3c81e895	0.015857974
213	0x3f0c8ba0	0.5490055
214	0x3e9c9235	0.30580297
215	0xbde359c5	-0.111011066
216	0xbeabd5e9	-0.33561638
217	0xbe91a59a	-0.28446656
218	0xbe9067cc	-0.2820419
219	0x3e876137	0.26441357
220	0xbc9c8a8d	-0.019109035
221	0x3c48abba	0.012247974
222	0x3ec1f1c5	0.37879768
223	0xbd880c18	-0.06642932
224	0x3e806abe	0.25081438
225	0xbe4091ac	-0.1880557
226	0xbbd68fe9	-0.006547917
227	0xbefa5ae6	-0.48897475
228	0xbef378a7	-0.47552988
229	0xbf06c85c	-0.52649474
230	0x3d7dcb4b	0.061961453
231	0xbe596ded	-0.2123334
232	0xbd999779	-0.07499594
233	0xbe6c6240	-0.23084354
234	0xbd88f10a	-0.066865996
235	0xbc175317	-0.009236119
236	0x3d8a0eca	0.06741102
237	0xbe3060e6	-0.17224464
238	0xbd80ac00	-0.062828064
239	0xbeb4e373	-0.3532978
240	0xbe09ae44	-0.13445383
241	0xbda26ea7	-0.079312615
242	0xbe7c47d4	-0.24636775
243	0xbe8ff634	-0.28117526
244	0xbe9e53bf	-0.30923268
245	0xbd99e626	-0.075146005
246	0xbf0d34ac	-0.55158496
247	0xbebc95c4	-0.36833012
248	0xbdb996b9	-0.09061951
249	0xbe8cb455	-0.27481332
250	0xbe219991	-0.15781237
251	0xbe72fee5	-0.23730047
252	0xbe38a77b	-0.18032639
253	0xbe606cfe	-0.21916577
254	0x3c9f1cc2	0.019422892
255	0xbde92b2d	-0.11385188

residual_blocks.1.conv1.bias f4 [32]
0	0xbded7d69	-0.11596186
1	0xbeac40e9	-0.33643273
2	0x3e0ebd53	0.13939409
3	0x3da7302a	0.081634834
4	0xbe679178	-0.22614086
5	0xbe1d807a	-0.15381041
6	0x3fa4837b	1.2852625
7	0xbe03e2b8	-0.12879455
8	0x3d8a9139	0.0676598
9	0xbf72e6b8	-0.948833
10	0xbd01ce65	-0.031690974
11	0xbe9a1733	-0.30095825
12	0xbf152ad1	-0.5826846
13	0xbfc8ab87	-1.5677346
14	0x3ebc7e54	0.3681513
15	0xbde70849	-0.11280877
16	0xbecb6db0	-0.39732122
17	0xbf50cdd3	-0.8156406
18	0x3f0c666b	0.5484378
19	0x3de273f1	0.1105727
20	0xbf77fc13	-0.9686901
21	0xbe3467db	-0.17617743
22	0x3f1601b7	0.58596367
23	0xbe4f4a3b	-0.2024316
24	0x3ed61350	0.4181161
25	0xbe849ff7	-0.25903293
26	0xbde074b5	-0.1095976
27	0xbf5de938	-0.8668399
28	0xbf4aad91	-0.7917109
29	0x3f5ddc49	0.86664253
30	0xbe1375ee	-0.14400455
31	0x3e6a1f3a	0.22863474

residual_blocks.1.conv2.weight f4 [32, 32, 3, 3]
0	0x3ed0482b	0.4068006
1	0x3d6c342e	0.05766695
2	0x3f18b1a7	0.59646076
3	0x3d3c4ac5	0.045969743
4	0xbd23c56d	-0.0399832
5	0x3f1277b4	0.572139
6	0x3e0356f3	0.12826137
7	0x3e138eb3	0.14409904
8	0x3f1adb72	0.60491097
9	0x3d0f8e1b	0.03504763
10	0xbe06d933	-0.13168792
11	0x3db111c8	0.0864597
12	0x3ca71382	0.020395044
13	0x3c77c53e	0.01512271
14	0x39c86c84	0.00038227823
15	0x3c3ce487	0.011529095
16	0xbc60eec7	-0.013728804
17	0xbd2b9347	-0.0418885
18	0x3e0c8e0a	0.13726059
19	0x3dbbcc16	0.09169786
20	0x3e8e8efb	0.2784346
21	0xbcede3aa	-0.029039223
22	0x3e9927d0	0.29913187
23	0xbe8c2c55	-0.27377573
24	0x3e2ea472	0.17054918
25	0x3dbcd1ac	0.09219679
26	0xbe1d7d45	-0.15379818
27	0xbdd2925f	-0.10281824
28	0x3dd16987	0.10225206
29	0xbd8e7370	-0.06955612
30	0xbdbc5233	-0.09195366
31	0xbe027ccd	-0.1274292
32	0xbddb2b04	-0.10701564
33	0xbecb5e24	-0.3972026
34	0xbcbb3921	-0.02285439
35	0xbdcf3596	-0.101176426
36	0xbd7a242a	-0.061069645
37	0xbce8fe17	-0.028441472
38	0x3dad6c2f	0.084679
39	0xbd6fead3	-0.058573555
40	0xbd7cf220	-0.061754346
41	0x3cf4a10d	0.029861951
42	0xbda61c14	-0.08110824
43	0xbd39e92b	-0.045388382
44	0x3d9d0af4	0.07668105
45	0xbe55699a	-0.20841065
46	0x3edf9c19	0.4367378
47	0x3e1b1a68	0.15146792
48	0x3d887b5d	0.06664155
49	0x3de413a5	0.111365594
50	0x3e180d9b	0.1484894
51	0xbe0c052a	-0.13673845
52	0x3e5f4df6	0.21807083
53	0x3edcc167	0.43116304
54	0x3e4acfca	0.19805828
55	0x3e7ad5f3	0.24495678
56	0x3e7c7154	0.24652606
57	0xbec361ad	-0.38160458
58	0xbee6d278	-0.4508245
59	0xbe40563f	-0.187829
60	0x3d6cead1	0.057841126
61	0xbd4a97b6	-0.04946109
62	0xbe1a6f94	-0.15081626
63	0xbe49fe53	-0.19725923
64	0xbcfe58a6	-0.03104813
65	0xbda776f1	-0.08176983
66	0x3d9bec34	0.076134115
67	0x3e072811	0.13198878
68	0x3d863f7b	0.06555077
69	0x3dbb2055	0.09137026
70	0x3d84cf03	0.06484797
71	0x3db9b1c6	0.09067111
72	0xbdeba692	-0.1150638
73	0xbdd62b33	-0.10457458
74	0xbe34a2e6	-0.17640266
75	0x3bc24f84	0.005929889
76	0x3bc2e5cb	0.0059478036
77	0xbcb5fe03	-0.022215849
78	0x3d8ee27c	0.06976792
79	0x3e016e4c	0.12639731
80	0xbc7c4c57	-0.01539906
81	0x3f0c49a0	0.5479984
82	0xbef8ca1b	-0.48591694
83	0xbf0097a6	-0.502314
84	0xbddacc5d	-0.106835105
85	0x3f122bb5	0.5709794
86	0xbef2ef1e	-0.47448057
87	0x3c4fa1dc	0.012672868
88	0x3e8071e2	0.25086886
89	0xbdce2972	-0.10066499
90	0x3e93d948	0.2887671
91	0x3e988d18	0.29795146
92	0x3e42d967	0.19028245
93	0xbe2f6d96	-0.17131647
94	0xbe989a8c	-0.2980541
95	0xbca9a7db	-0.020709923
96	0x3c48b4d5	0.012250145
97	0x3e0d4dcc	0.13799208
98	0xbf1dfaf6	-0.6171106
99	0xbe98bcf5	-0.29831663
100	0xbe6e8070	-0.23291183
101	0x3d42ef22	0.047591336
102	0xbd96268e	-0.073315725
103	0xbd79ae1e	-0.060957067
104	0xbd9bcc20	-0.07607293
105	0x3c3921b7	0.011299542
106	0x3d2c4301	0.042056087
107	0xbc03bc03	-0.008040431
108	0x3eef3254	0.46718085
109	0x3e356284	0.17713362
110	0x3e2c619e	0.16834113
111	0xbdb88e03	-0.090114616
112	0xbea36c02	-0.3191834
113	0x3ebd7008	0.36999536
114	0xbec0cbe4	-0.37655556
115	0xbf2cce13	-0.67501944
116	0xbc498336	-0.0122993495
117	0x3e73b8f5	0.23801024
118	0x3d1dc113	0.038514208
119	0xbea1b1a9	-0.31580856
120	0xbdd4d120	-0.1039145
121	0xbe81e16a	-0.2536729
122	0xbf0eaba7	-0.5573067
123	0x3dd53d4b	0.10412081
124	0x3e1a814c	0.15088385
125	0x3d8df672	0.06931771
126	0x3e601014	0.21881133
127	0x3daf3d05	0.085565604
128	0xbb545dea	-0.003240461
129	0xbf4501c4	-0.7695582
130	0xbee3ab29	-0.44466522
131	0xbe5bf1b9	-0.21478929
132	0x3eaa4383	0.33254632
133	0x3dbaeb0c	0.09126863
134	0x3c21a523	0.009866032
135	0x3ca2a059	0.01985185
136	0x3c870c49	0.01648535
137	0xbcd4f127	-0.025993897
138	0x3ce05393	0.027383601
139	0xbce62c50	-0.028097302
140	0xbc2e6ae6	-0.010645604
141	0x3ca7baab	0.020474752
142	0xbd3b2810	-0.045692503
143	0x3c6ea0da	0.014564717
144	0x3dfcc212	0.123417035
145	0x3c98257f	0.018572567
146	0x3baa3b49	0.0051950556
147	0x3e0122d2	0.12610939
148	0xbdee9338	-0.116491735
149	0xbe2b9ad1	-0.16758277
150	0x3dda1034	0.10647622
151	0x3e0a2ffc	0.13494867
152	0x3cff6b5e	0.031179126
153	0xbf03b6c0	-0.5145073
154	0xbdb2c4e1	-0.08728958
155	0xbec61018	-0.38684154
156	0x3df2c821	0.11854578
157	0x3e71d799	0.236174
158	0x3e3919b8	0.18076217
159	0xbea968dc	-0.33087814
160	0xbe90e693	-0.28300914
161	0x3d595f6d	0.05306952
162	0x3cfb9643	0.030711299
163	0x3e53b8a7	0.20675908
164	0x3e7c120a	0.24616256
165	0xbf1cf666	-0.61313474
166	0xbea1a53c	-0.31571376
167	0xbe93cd9d	-0.28867808
168	0x3dbf5c68	0.09343797
169	0x3e9d503e	0.30725282
170	0x3e040fa2	0.12896588
171	0xbd363fd0	-0.04449445
172	0x3ee7157f	0.45133588
173	0x3e8649e6	0.26228255
174	0x3e24826d	0.16065378
175	0x3e0d84a2	0.13820127
176	0x3ef3467d	0.47514716
177	0x3dc798d2	0.09745945
178	0xbde6c751	-0.11268485
179	0x3cf7cfc0	0.03025043
180	0xbf41025c	-0.75394225
181	0xbdbf0612	-0.0932733
182	0xbdff49ad	-0.124652244
183	0xbf48e359	-0.78471905
184	0xbe1a8a33	-0.15091781
185	0xbdc3a4d9	-0.095529266
186	0xbb358b8d	-0.0027701587
187	0x3e88d744	0.26726735
188	0x3e9f2a3a	0.31086904
189	0x3bac6b71	0.0052618315
190	0x3d50eeb3	0.05100889
191	0x3d8ad15a	0.06778212
192	0x3d384fb7	0.044997897
193	0x3da8ae4c	0.082363695
194	0x3e2a7b1c	0.16648525
195	0x3e0cb0fc	0.13739389
196	0x3dd59aa2	0.104298845
197	0x3df3cd14	0.1190435
198	0xbe71a8a0	-0.23599482
199	0xbe277c7a	-0.16356078
200	0xbf5766d7	-0.84141296
201	0xbe8aaaf3	-0.2708355
202	0xbe7d2583	-0.24721341
203	0x3e6f56c4	0.23372942
204	0x3eaa4160	0.33253002
205	0x3ed8ae86	0.4232065
206	0xbe62e2fa	-0.22156897
207	0xbc8ccc56	-0.017187279
208	0xbd3348ae	-0.043770485
209	0xbd944d4c	-0.07241306
210	0x3d1e1084	0.03858997
211	0x3d86a4a3	0.06574371
212	0x3d49f63e	0.0493071
213	0xbd435873	-0.047691774
214	0x3ddb62e6	0.10712223
215	0xbd4ff8bd	-0.050774325
216	0xbd15984d	-0.0365222
217	0xbe959685	-0.292164
218	0xbeeb9921	-0.46015266
219	0xbe09f16d	-0.13471003
220	0xbe258e61	-0.16167594
221	0x3d1827be	0.037147276
222	0xbd1bd11a	-0.03804121
223	0xbe3572c7	-0.17719565
224	0xbeb91b23	-0.36153516
225	0xbede4071	-0.4340854
226	0xbe751cb7	-0.23936735
227	0xbe3a1d74	-0.18175298
228	0x3e7dde79	0.24791898
229	0x3ea4bee4	0.32176888
230	0xbd97c991	-0.074114926
231	0x3e2a12e3	0.16608767
232	0xbdc4dfcb	-0.096129976
233	0xbefad5ae	-0.4899115
234	0xbd5330e8	-0.051560313
235	0x3ef41e00	0.47679138
236	0x3f144123	0.5791189
237	0x3eb1db45	0.34737602
238	0x3f39a563	0.72517985
239	0x3f1f68ce	0.62269294
240	0x3f1d07ad	0.6133984
241	0x3ee277d5	0.4423205
242	0x3e90e796	0.28301686
243	0xbdb40066	-0.087891385
244	0x3c962099	0.01832609
245	0x3d3e40d9	0.046448562
246	0x3d36d749	0.044638906
247	0xbd5e9b43	-0.054347288
248	0x3ee0e873	0.43927345
249	0xbdc7b6d6	-0.0975167
250	0x3e31ed35	0.17375644
251	0x3c31cacc	0.010851573
252	0xbf11c2cd	-0.5693787
253	0xbf2b3ab7	-0.66886467
254	0xbee8a82a	-0.454408
255	0xbe8226f4	-0.25420344

residual_blocks.1.conv2.bias f4 [32]
0	0xbe1a23d4	-0.1505273
1	0xc0212112	-2.5176435
2	0xbf9f05f1	-1.2423688
3	0xbe67e052	-0.22644165
4	0x3fa9d46c	1.3267951
5	0xbca0240a	-0.019548435
6	0xbefe6d2c	-0.49692667
7	0xbfceba8c	-1.615068
8	0x3ff47ee8	1.9101229
9	0x3f120b36	0.57048357
10	0xbfd50486	-1.6642005
11	0xbecc7fa2	-0.39941126
12	0xbfee3b09	-1.8611766
13	0xbf1855e6	-0.5950607
14	0xbed09cbf	-0.40744588
15	0xbeee1e80	-0.46507645
16	0xbebf0e57	-0.37315628
17	0xbd72d40d	-0.05928426
18	0xbf8f13b7	-1.1177891
19	0xbf84e3ad	-1.0381981
20	0xbeedb60d	-0.46427956
21	0x3d8d5d6e	0.06902586
22	0xbdc5d93f	-0.09660577
23	0xbf80cdac	-1.0062766
24	0xbeb1eab3	-0.34749374
25	0x3e6bbf54	0.23022205
26	0xbf220edc	-0.63303924
27	0xbe063f5d	-0.13110109
28	0xbed2f235	-0.41200414
29	0xbdd5fcce	-0.10448609
30	0x3eac8bd8	0.33700442
31	0x3e8022b6	0.25026482

residual_blocks.2.conv1.weight f4 [32, 32, 3, 3]
0	0xbe7ea11c	-0.24866146
1	0xbf1965d0	-0.5992098
2	0xbd808e40	-0.06277132
3	0xbe5eb35d	-0.21748109
4	0xbe8bdc45	-0.2731649
5	0x3e72c92f	0.23709558
6	0x3db82fc1	0.08993483
7	0xbea5f691	-0.32414678
8	0xbf1b1fac	-0.605952
9	0xbd80caa5	-0.062886514
10	0xbc8c0fc1	-0.017097356
11	0x3dfeec6c	0.12447438
12	0xbeeba52f	-0.46024463
13	0xbce8e2ef	-0.028428523
14	0xbdef970a	-0.1169873
15	0xbe102ca9	-0.14079536
16	0xbf00ece1	-0.5036145
17	0xbebc885d	-0.36822787
18	0xbeaa5194	-0.33265364
19	0xbf30eb3b	-0.69108933
20	0xbdddfe08	-0.10839468
21	0xbe7b2ef8	-0.24529636
22	0xbe40cfcc	-0.18829268
23	0xbe7da3a8	-0.24769461
24	0xbeb86c86	-0.36020297
25	0xbe2b6bc1	-0.16740324
26	0xbe034fc2	-0.12823394
27	0x3e81af28	0.25328946
28	0x3d95cf10	0.07314885
29	0x3f0471cc	0.5173614
30	0x3e8c24be	0.27371782
31	0xbee4e795	-0.44707933
32	0xbd385e99	-0.04501209
33	0xbe413792	-0.18868855
34	0xbc53162a	-0.012883702
35	0x3e29dead	0.1658885
36	0xbe2c9ec5	-0.16857441
37	0xbe600d74	-0.21880132
38	0xbecbe873	-0.39825782
39	0x3d53d4ac	0.05171649
40	0xbed526cb	-0.4163116
41	0xbeab67a3	-0.33477506
42	0x3da4ea16	0.08052461
43	0xbe5bd486	-0.2146779
44	0xbceb5652	-0.028727684
45	0xbe7ce05e	-0.24694964
46	0xbea03da2	-0.31297022
47	0xbe8dfc8c	-0.2773174
48	0xbeeaccfd	-0.4585952
49	0xbe516d96	-0.2045196
50	0x3d7cd95c	0.061730728
51	0x3eaac0df	0.33350274
52	0x3dfb8d6c	0.122828335
53	0xbd5f832b	-0.05456845
54	0x3db6ab7e	0.08919428
55	0xbdb6d1d7	-0.089267425
56	0xbe9e11a4	-0.30872834
57	0x3e971afa	0.2951277
58	0xbe5ddc4d	-0.2166607
59	0xbddf9efb	-0.10918995
60	0xbe848672	-0.25883824
61	0x3d96ee47	0.073696665
62	0xbdb6b19d	-0.08920596
63	0xbec66bf1	-0.38754228
64	0xbcce71ec	-0.025200807
65	0xbe1028aa	-0.14078012
66	0xbf1ad61d	-0.6048296
67	0xbeee46c0	-0.46538353
68	0xbf067bd8	-0.5253272
69	0xbd83d203	-0.06436541
70	0x3e579c1c	0.21055645
71	0x3dea10f2	0.11429013
72	0x3dfc3851	0.12315429
73	0xbe99ee96	-0.3006484
74	0xbd82e7c2	-0.063918605
75	0xbc050569	-0.008118966
76	0x3cf8ad85	0.030356178
77	0xbe55c3a5	-0.20875414
78	0x3e204e98	0.15654981
79	0xbeddfc5b	-0.43356594
80	0xbeefe8e0	-0.46857357
81	0xbf0beaf8	-0.5465541
82	0xbd81dc91	-0.06340898
83	0xbd5ce658	-0.05393061
84	0xbe238c67	-0.15971528
85	0xbf590d47	-0.84785885
86	0xbec951eb	-0.3932031
87	0xbeb5be9a	-0.3549698
88	0xbe1c3043	-0.15252785
89	0xbe012b2c	-0.12614125
90	0x3d342abf	0.04398608
91	0x3e4d63f3	0.20057659
92	0x3db61505	0.08890728
93	0xbd67200a	-0.05642704
94	0x3e874b7a	0.26424772
95	0xbd8fd39f	-0.070227854
96	0x3d302ed3	0.043013405
97	0x3db4bba9	0.08824856
98	0xbca30908	-0.019901767
99	0xbce631c3	-0.0280999
100	0xbdfe3721	-0.12412859
101	0x3e630ffe	0.2217407
102	0xbe5fb242	-0.21845344
103	0xbe740415	-0.23829682
104	0x3e88f4fc	0.26749408
105	0xbebc95b7	-0.36832973
106	0x3dabc82b	0.083877884
107	0xbe8f990c	-0.28046453
108	0x3e8f89ca	0.28034812
109	0x3ea857cc	0.32879484
110	0x3e5f4dc5	0.2180701
111	0xbe4aa102	-0.19787982
112	0xbeca056d	-0.39457265
113	0xbe9b8b75	-0.30379835
114	0xbe673e3c	-0.22582334
115	0xbea13ebf	-0.31493184
116	0xbcefed5b	-0.029287985
117	0xbe97f445	-0.2967855
118	0xbd871f4e	-0.06597768
119	0xbe8190b6	-0.25305718
120	0xbde64803	-0.11244204
121	0xbefd2e2e	-0.49449295
122	0x3e926b9c	0.28597724
123	0xbe8de8df	-0.2771673
124	0xbf4309e2	-0.76186955
125	0xbe638eec	-0.22222489
126	0xbdf90160	-0.121584654
127	0xbec11611	-0.37712148
128	0xbf19ad8d	-0.6003044
129	0x3d0ca02e	0.034332447
130	0xbde7bd5a	-0.11315413
131	0xbef8b7e0	-0.48577785
132	0xbd8a677e	-0.06758021
133	0xbf06620f	-0.52493376
134	0xbf179de5	-0.592253
135	0xbed1045f	-0.40823647
136	0xbea8b2f0	-0.32949018
137	0x3ea7efc5	0.32800117
138	0xbe84b47a	-0.25918943
139	0xbe5515d6	-0.20809111
140	0x3ec47a09	0.38374355
141	0xbe00ef8f	-0.12591384
142	0xbd47f8a3	-0.048821103
143	0xbd458c8e	-0.048229747
144	0xbed052a7	-0.4068806
145	0xbed27cf9	-0.41110972
146	0xbf11c18d	-0.5693596
147	0xbe51442f	-0.20436166
148	0xbedf9719	-0.43669966
149	0xbe9ccb19	-0.306237
150	0x3e5729e8	0.2101208
151	0xbe503285	-0.20331772
152	0xbe2f2e86	-0.17107591
153	0xbc4e6222	-0.012596639
154	0xbe38a90d	-0.18033238
155	0xbe4dab07	-0.20084773
156	0xb8df9d75	-0.00010662797
157	0xbe572261	-0.21009208
158	0xbe9c961e	-0.3058328
159	0x3d977aec	0.07396492
160	0xbaf8e88d	-0.0018990204
161	0xbea49978	-0.32148337
162	0xbf267b7f	-0.6503219
163	0xbea70a9f	-0.3262529
164	0xbea8960c	-0.32926977
165	0xbf1213db	-0.5706155
166	0xbee529fb	-0.4475859
167	0xbdfe7320	-0.12424302
168	0xbf20a4ee	-0.6275166
169	0xbf0bac95	-0.54560214
170	0x3ce2d80e	0.027690914
171	0x3d811376	0.0630254
172	0xbc96fd12	-0.01843122
173	0xbf16c515	-0.58894473
174	0xbdef622f	-0.11688649
175	0xbed6412f	-0.41846606
176	0xbdcbe73d	-0.099562146
177	0xbe197d1c	-0.14989132
178	0xbee8d793	-0.4547697
179	0xbd988268	-0.07446748
180	0xbef1e8ae	-0.47247833
181	0xbec973c9	-0.3934615
182	0xbe78203a	-0.24231043
183	0xbd5f4f9c	-0.05451928
184	0xbe8a33de	-0.26992697
185	0xbd85bc3e	-0.06530045
186	0xbe8fc243	-0.28077897
187	0xbeb6bbc8	-0.3569014
188	0xbd9b03c6	-0.07569079
189	0xbf047eff	-0.5175628
190	0xbf0d2f63	-0.5515043
191	0xbf28e20d	-0.65969926
192	0xbf085773	-0.53258437
193	0xbf23e258	-0.6401725
194	0xbf584b20	-0.8448963
195	0xbf127dfc	-0.57223487
196	0xbf1bd68d	-0.60874254
197	0xbf58c9f0	-0.8468313
198	0x3d4e7fe4	0.050414935
199	0xbf0b722a	-0.54471076
200	0xbeccabe3	-0.3997489
201	0xbdbdfef9	-0.09277148
202	0xbf06dee9	-0.52683884
203	0xbef4f6b3	-0.47844467
204	0xbdc6908c	-0.09695539
205	0xbe99132f	-0.29897448
206	0xbe50857d	-0.20363422
207	0xbe706805	-0.2347718
208	0xbea15d85	-0.31516662
209	0xbea577f0	-0.32318068
210	0x3e84b0d6	0.25916165
211	0x3ce4856a	0.027895648
212	0xbc983fb6	-0.018585067
213	0x3e5d41fd	0.21607204
214	0xbebb7a6d	-0.3661684
215	0xbe0ee839	-0.13955773
216	0xbe840a6c	-0.257892
217	0xbe5fc66c	-0.21853036
218	0xbe1234b7	-0.14277922
219	0xbec8945b	-0.39175686
220	0xbdb03d4b	-0.08605441
221	0xbee287b7	-0.44244167
222	0xbdac72d2	-0.08420338
223	0xbe4141c6	-0.18872747
224	0x3dcbcb31	0.09950865
225	0xbdcebfa5	-0.10095147
226	0x3ed142ba	0.4087122
227	0x3e51dea1	0.20495082
228	0x3d15e2ab	0.03659312
229	0xbebad91c	-0.36493766
230	0xbe7c72a2	-0.24653104
231	0xbe780dea	-0.24224058
232	0x3e8852d1	0.26625684
233	0xbf0944ae	-0.5362042
234	0xbe1a2345	-0.15052517
235	0xbd1b39fc	-0.037897095
236	0xbe851146	-0.2598974
237	0xbe18819e	-0.14893195
238	0xbef53ca7	-0.47897837
239	0xbdf5956f	-0.11991393
240	0xbe5ad03d	-0.21368499
241	0xbe899a36	-0.26875466
242	0xbeb7913f	-0.35853
243	0xbea0c509	-0.31400326
244	0x3ec8d7b4	0.39227068
245	0x3c8055a7	0.015665842
246	0xbe6683cd	-0.22511216
247	0xbed28911	-0.41120198
248	0xbda441b8	-0.08020347
249	0xbddce1b6	-0.107852384
250	0x3e07601c	0.13220257
251	0x3e98b916	0.2982871
252	0xbea05383	-0.31313714
253	0xbe5ecbb9	-0.21757402
254	0xbe7b8bce	-0.2456505
255	0x3dbe6879	0.0929727

residual_blocks.2.conv1.bias f4 [32]
0	0xbeadd1de	-0.33949178
1	0xbe8f5a22	-0.27998453
2	0xbe34c52f	-0.17653345
3	0x3f758776	0.9590982
4	0xbe6799fe	-0.22617337
5	0xbe83a39c	-0.25710762
6	0x3ea66823	0.32501325
7	0xbf29ab4f	-0.6627702
8	0xbf13ea55	-0.5777944
9	0xbf3050d5	-0.6887334
10	0xbedd9d6e	-0.43284172
11	0xbf1e1258	-0.6174674
12	0xbfefc8d3	-1.8733162
13	0xbf54e2a3	-0.8315832
14	0xbe929a22	-0.2863322
15	0xbe1b29c4	-0.15152651
16	0xbf089649	-0.53354317
17	0x3c4996cf	0.012304022
18	0xbeafaacc	-0.34309995
19	0xbf22bf78	-0.6357341
20	0xbf0643a0	-0.5244694
21	0xbe4689a1	-0.19388439
22	0xbed54770	-0.41656065
23	0xbef468df	-0.4773626
24	0xbf391797	-0.7230162
25	0xbec66d63	-0.3875533
26	0x3def4a6b	0.11684116
27	0x3ef84f74	0.48498118
28	0xbe999703	-0.29998025
29	0xbe70382b	-0.23458926
30	0xbe993474	-0.2992283
31	0xbea98dc2	-0.33115965
